tests/models/srcnn.onnx (onnx, 277835 bytes, 6 tensors)

net.0.body.0.bias f4 [64]
-0.027405567 0.010743571 0.06191613 -0.1147281 0.14148109 0.04384985 0.11929793 0.06808971
0.008798049 -0.023739122 0.15390055 -0.034530576 -0.032934397 0.029688112 0.00011623112 0.007770327
0.026359996 -0.0058202674 -0.009354928 0.023605485 -0.014796159 0.01650375 -0.025498478 -0.0017005352
0.0039267982 0.041704014 0.058548674 -0.038269795 -0.008595891 0.04961787 -0.022823732 0.0077818655
-0.0120844245 -0.0033665665 -0.0068106246 -0.057945456 -0.0146953855 0.020848768 0.020820338 0.020512003
-0.011976001 0.02466453 -0.0028671257 0.00019234102 0.026676781 -0.2051939 0.013409844 0.011319237
0.054577477 0.048921034 -0.01221591 0.012655039 -0.016762733 0.094915494 0.010118005 0.030246848
0.071700126 0.08437434 0.05398021 0.015105863 0.01733214 -0.0024849926 0.04343069 -0.013592416
00000000: a481 e0bc ce05 303c c59b 7d3d 91f6 eabd
00000010: 6be0 103e e69b 333d 7952 f43d 9e72 8b3d
00000020: b125 103c 8c78 c2bc 1b98 1d3e ef6f 0dbd
00000030: 38e6 06bd 7c34 f33c 1bc1 f338 3a9e fe3b
00000040: ebf0 d73c f1b7 bebb 6945 19bc 4a60 c13c
00000050: 976b 72bc df32 873c 2fe2 d0bc 7ee4 deba
00000060: 5fac 803b d4d1 2a3d bcd0 6f3d cac0 1cbd
00000070: c8d5 0cbc 1c3c 4b3d d6f8 babc 05ff fe3b
00000080: c0fd 45bc 9da1 5cbb a92b dfbb 3758 6dbd
00000090: eac4 70bc 09cb aa3c 6a8f aa3c ca08 a83c
000000a0: fd36 44bc 450d ca3c 63e6 3bbb 26af 4939
000000b0: 4489 da3c 5a1e 52be f6b4 5b3c 5274 393c
000000c0: a28c 5f3d 6c61 483d 3d25 48bc 1557 4f3c
000000d0: 0052 89bc 0e63 c23d fdc5 253c 3dc8 f73c
000000e0: 84d7 923d 74cc ac3d 5a1a 5d3d 957e 773c
000000f0: 22fc 8d3c 42db 22bb 61e4 313d bab2 5ebc

net.0.body.0.weight f4 [64, 3, 9, 9]
0.006673907 0.0051400037 0.010040445 -0.06681266 -0.023378076 -0.059990477 0.023655146 0.040930424
-0.039341945 -0.0067627365 -0.03676296 0.045496717 0.04545595 -0.030960837 -0.011575927 0.007763795
0.04176802 -0.0074122776 -0.04237276 0.05413644 0.058690052 0.06762398 -0.0125762075 0.001500807
0.045405693 -0.026030732 0.03273235 0.03029376 0.004668852 0.034283213 0.011030164 -0.05407411
-0.024756629 -0.010858113 0.058828466 0.04579895 0.020429062 -0.009957389 0.016852004 -0.052180793
0.004209779 0.015442894 -0.010481936 0.04374966 -0.038467355 0.01298059 -0.017275855 -0.010644851
0.050461404 -0.07057853 -0.007703626 0.012438184 0.028555246 0.03570215 0.009665797 0.049692396
-0.063914716 -0.056470152 0.010407259 -0.010316653 0.022614347 0.014993899 -0.042447068 -0.055048063
-0.047919635 0.06351184 -0.061185252 -0.044478115 0.030639052 0.052001614 -0.0035959503 -0.029409874
-0.040068112 0.049446344 0.040407803 -0.0063182022 -0.035254564 0.047627617 -0.029376045 -0.050750338
0.049252942 -0.025072584 -0.03337232 0.057956588 -0.04498504 -0.039232127 -0.029292414 -0.0325844
-0.044609558 -0.031398844 -0.048532043 0.0022845683 0.03114529 0.05613169 -0.04333607 -0.010450054
-0.05004032 -0.032692235 -0.05718616 0.02356441 0.0068388465 0.040791348 -0.057092924 0.05675957
-0.006579807 0.009300054 0.030546542 -0.002272069 0.030591441 -0.025419315 0.0060773618 0.058393713
0.0068447096 -0.055815235 0.038704228 0.048419166 -0.017403428 -0.006226939 -7.6688724e-05 0.05053363
-0.035308994 0.05295135 0.006021304 0.00457962 0.0134443585 -0.013037082 -0.0071284086 0.017783377
-0.042833958 0.054229677 0.0565506 0.036082167 -0.023337765 0.039918054 -0.059150327 0.026231231
0.02956287 0.01003517 0.016674979 0.064855225 -0.022741431 -0.032970335 -0.018476892 -0.0016705504
0.057804514 -0.03447068 0.001068366 -0.02311577 -0.04401911 -0.048241265 0.022361722 0.05891422
-0.04088561 -0.04451891 0.04787691 0.031489454 0.036724098 -0.049023695 0.031608928 -0.0286455
0.059733603 -0.012568332 0.045430847 0.015560499 0.01725557 -0.042957485 -0.06400765 0.003601577
-0.05811803 0.043865215 0.008507317 -0.036934074 0.025504392 0.011065079 -0.035592735 0.007807225
-0.02200377 -0.022809928 0.05344257 0.019391766 -0.029071154 -0.055626325 -0.0037760418 0.033148285
-0.042263754 0.058403198 0.067717485 -0.04205618 -0.03886226 0.0137208 0.059705153 0.06832401
-0.036420804 -0.008620709 0.024046687 0.01686938 0.031081563 -0.027215306 0.024031771 0.018147424
0.041859638 -0.05975359 0.007250306 -0.018298501 0.026126534 -0.0029575012 -0.029220171 0.035986025
-0.045060422 0.012983993 -0.056908786 0.037748184 0.053078037 0.06746569 -0.046470266 -0.06043324
0.025349805 0.0148332985 0.04811092 -0.0077862856 0.04618599 0.008174894 -0.031639595 -0.0471741
-0.014468074 0.046380788 -0.008560741 -0.007452212 -0.05626435 0.045375578 -0.011960798 0.045693696
0.05751359 -0.029651305 -0.020701956 0.004032363 -0.03379731 -0.0619247 -0.05682526 0.009090297
-0.017002005 -0.02105643 0.03392775 -0.008330438 -0.012933905 0.059862006 0.049267944 -0.015187937
-0.039088383 0.05460855 0.048785515 0.017635167 0.0115420725 -0.03739848 0.018001128 -0.008841197
00000000: cab0 da3b 7a6d a83b ae80 243c 13d5 88bd
00000010: 6183 bfbc 93b8 75bd 70c8 c13c a9a6 273d
00000020: 0525 21bd f299 ddbb c294 16bd c45a 3a3d
00000030: 0530 3a3d 95a1 fdbc f5a8 3dbc 6f67 fe3b
00000040: f114 2b3d b1e2 f2bb 0f8f 2dbd 2cbe 5d3d
00000050: fb64 703d 717e 8a3d 700c 4ebc bab6 c43a
00000060: 52fb 393d 673e d5bc 5b12 063d 9f2a f83c
00000070: 2bfd 983b 8e6c 0c3d dcb7 343c d07c 5dbd
00000080: 6ace cabc 3ae6 31bc 1ef6 703d ae97 3b3d
00000090: d95a a73c 5124 23bc 370d 8a3c 87bb 55bd
000000a0: 30f2 893b 3104 7d3c 6dbc 2bbc d832 333d
000000b0: f28f 1dbd 8aac 543c 1886 8dbc be67 2ebc
000000c0: 9eb0 4e3d 7a8b 90bd b36e fcbb 86c9 4b3c
000000d0: b1ec e93c 6b3c 123d 4b5d 1e3c 418a 4b3d
000000e0: b8e5 82bd 3f4d 67bd 3583 2a3c 2e07 29bc
000000f0: b941 b93c f8a8 753c fadc 2dbd 147a 61bd
00000100: 6147 44bd 7f12 823d 639d 7abd af2e 36bd
00000110: c0fe fa3c a5ff 543d 09aa 6bbb faec f0bc
00000120: 761e 24bd 4088 4a3d a782 253d ec08 cfbb
00000130: 1767 10bd 2d15 433d 08a6 f0bc 96df 4fbd
00000140: 74bd 493d 0565 cdbc 6ab1 08bd e363 6d3d
00000150: 3c42 38bd deb1 20bd a5f6 efbc 3877 05bd
00000160: 83b8 36bd 139c 00bd 89c9 46bd b2b8 153b
00000170: 6824 ff3c 58ea 653d 2a81 31bd b436 2bbc
00000180: 14f7 4cbd 4be8 05bd 093c 6abd 260a c13c
00000190: 6718 e03b d414 273d 45da 69bd b97c 683d
000001a0: 6c9b d7bb 415f 183c be3c fa3c fee6 14bb
000001b0: e79a fa3c 2b3c d0bc 9b24 c73b 3f2e 6f3d
000001c0: 9649 e03b 849e 64bd 5388 1e3d 2d53 463d
000001d0: a291 8ebc 5a0b ccbb f2d3 a0b8 5afc 4e3d
000001e0: 2aa0 10bd 84e3 583d 5c4e c53b a310 963b
000001f0: ba45 5c3c 7c99 55bc 6d95 e9bb 72ae 913c
00000200: a972 2fbd f01f 5e3d 9aa1 673d e5ca 133d
00000210: d72e bfbc 1d81 233d 9d47 72bd e1e2 d63c
00000220: d52d f23c 8e6a 243c f799 883c d1d2 843d
00000230: 3d4c babc e70b 07bd da5c 97bc 5ff6 daba
00000240: 6dc4 6c3d 2131 0dbd 6a08 8c3a 495d bdbc
00000250: 624d 34bd a298 45bd ee2f b73c 0a50 713d
00000260: ab77 27bd 7659 36bd 941a 443d 16fb 003d
00000270: 026c 163d 12cd 48bd 5d78 013d f8a9 eabc
00000280: 39ab 743d 68eb 4dbc b215 3a3d 77f1 7e3c
00000290: 8e5b 8d3c 30f4 2fbd 7116 83bd 6f08 6c3b
000002a0: 2c0d 6ebd 03ac 333d 4662 0b3c 2f48 17bd
000002b0: 96ee d03c 4e4a 353c b0c9 11bd c0d3 ff3b
000002c0: 4041 b4bc e3db babc 99e6 5a3d 7bdb 9e3c
000002d0: a126 eebc 6ed8 63bd 7877 77bb 7fc6 073d
000002e0: c21c 2dbd 3138 6f3d 77af 8a3d 1a43 2cbd
000002f0: 082e 1fbd 35cd 603c 648d 743d 75ed 8b3d
00000300: fb2d 15bd e03d 0dbc 8ffd c43c a731 8a3c
00000310: c39e fe3c a2f2 debc 47de c43c e8a9 943c
00000320: 0375 2b3d 2ec0 74bd fa93 ed3b bde6 95bc
00000330: 5007 d63c a3d2 41bb 245f efbc 1566 133d
00000340: 4791 38bd d0ba 543c 3019 69bd d79d 1a3d
00000350: 5b68 593d 742b 8a3d 9b57 3ebd d888 77bd
00000360: 65aa cf3c 5d07 733c f50f 453d 1924 ffbb
00000370: 852d 3d3d feef 053c 8598 01bd a139 41bd
00000380: 800b 6dbc c8f9 3d3d 5a42 0cbc af31 f4bb
00000390: 7275 66bd bedb 393d 39f7 43bc 5029 3b3d
000003a0: 5f93 6b3d 4be7 f2bc 2697 a9bc ea21 843b
000003b0: 0c6f 0abd c1a4 7dbd 9bc1 68bd 78ef 143c
000003c0: ca47 8bbc 897e acbc d3f7 0a3d 647c 08bc
000003d0: bbe8 53bc dd31 753d 2fcd 493d d3d6 78bc
000003e0: 241b 20bd 37ad 5f3d 52d3 473d a077 903c
000003f0: f61a 3d3c 262f 19bd 1a77 933c abda 10bc

net.1.body.0.bias f4 [32]
0.01135502 0.0036380105 0.05933912 0.009483066 0.016760953 0.0050343084 0.012135973 -0.013827829
-0.021806078 0.013487863 0.01709678 -0.008655581 0.013205717 0.024532752 -0.018899448 0.023721926
-0.019852571 0.0077998466 0.003948456 -0.020176757 -0.0112126665 0.025628708 0.04233721 0.019467952
0.025778025 -0.0042853896 -0.016235515 -0.017432377 -0.0029806339 0.024425551 -0.0037192872 -0.014873046
00000000: 680a 3a3c b06b 6e3b 940d 733d dd5e 1b3c
00000010: 444e 893c d7f6 a43b f6d5 463c 1e8e 62bc
00000020: a9a2 b2bc 33fc 5c3c 8c0e 8c3c 23d0 0dbc
00000030: cb5c 583c e9f8 c83c 04d3 9abc 7c54 c23c
00000040: dca1 a2bc db95 ff3b 0d62 813b ba49 a5bc
00000050: 55b5 37bc 4cf3 d13c c869 2d3d 417b 9f3c
00000060: 702c d33c 746c 8cbb 5800 85bc 58ce 8ebc
00000070: bd56 43bb 1818 c83c 49bf 73bb 14ae 73bc

net.1.body.0.weight f4 [32, 64, 5, 5]
0.0049452637 -0.0059502185 0.054716498 0.062735 0.017105017 -0.048767876 -0.032430086 0.0033270044
0.035167973 -0.011655769 -0.03089068 0.0027373775 0.02933765 0.044384044 0.0019366058 0.0124337245
0.027222501 0.0008326 0.01921153 -0.0073614456 0.02581021 0.0111473445 0.019729527 0.03137111
0.010017509 -0.0036401588 0.019746713 0.018275147 -0.00019809048 -0.024243673 -0.018679464 0.014981292
0.0073817475 0.0051738387 -0.020273872 0.018782692 -0.024277575 0.014537013 -0.008436603 0.0045691365
0.021039305 -0.020839367 0.0031010127 -0.022714317 -0.030026482 -0.008607108 -0.0014041375 0.0068985326
0.0039557787 0.017019168 -0.035832055 -0.04033756 0.027736843 0.006238594 0.00045535836 -0.056822103
-0.036596287 -0.023305854 -0.020421112 -0.028323364 0.0104560545 -0.015048689 0.009839455 -0.004062041
0.04196228 -0.008530201 -0.006498667 0.019636482 0.012426804 0.035526484 0.0089075165 0.0002725333
0.0204911 0.05676894 0.04122753 -0.016844409 0.0030155864 -0.021575535 0.034410965 -0.01130609
-0.022129435 -0.0065112934 -0.015072246 0.03051743 -0.0030970178 0.02404857 0.019935656 0.024614785
0.056679543 0.029714238 -0.01855305 0.007986648 -0.0025109367 0.04281146 -0.006018714 -0.07098323
-0.037869886 -0.043168847 -0.012859974 -0.08985521 -0.023532905 0.027389845 0.0030310822 0.011293797
-0.00038366168 0.01544185 0.024192233 0.007787039 0.00676543 -0.015214328 0.010847761 -0.02499108
0.015316554 0.0074499263 -0.012353847 -0.005945413 0.0045301355 0.013110275 -0.018351676 -0.036249615
0.016262425 -0.0042043217 0.015242466 0.03523906 -0.014422487 -0.021595221 -0.0104236 0.045274403
-0.011910837 0.015227949 -0.01112861 -0.0021666512 0.010392621 0.008734837 -0.005584611 0.020961184
0.023558296 0.01278427 0.008243029 -0.015463851 0.019951666 -0.0141024 0.023982365 0.022742761
-0.008056077 -0.008939353 -0.00700193 -0.018366612 0.0047920356 0.0018652151 0.022705516 0.03252238
0.031058803 0.018931305 0.02889833 0.0041409563 0.030437995 0.012976004 0.011831595 0.0054596276
-0.017033504 0.010783031 0.023770992 -0.007610907 -0.010160243 -0.0050280136 -0.03509358 0.0006992735
-0.024648 -0.038074717 -0.016944794 -0.026962155 -0.029650962 -0.03768904 -0.019557256 -0.020650232
0.010562546 0.0018163967 -0.060192596 -0.02496143 0.040110867 0.015741842 0.012358333 0.020367105
0.009037375 0.010547717 0.020312713 0.04034637 0.034008574 0.0048362594 -0.0017934574 0.014890182
-0.0015524764 0.033916138 0.021107428 -0.03419406 -0.022757225 0.0056373547 -0.0077669336 -0.020702826
-0.061300263 -0.0160028 -0.022289453 -0.017353676 -0.13361526 0.03614484 0.0053677275 0.050272286
0.041502997 -0.023468817 0.060358703 0.025509074 0.016303837 0.057974644 0.01796775 -0.00043096236
0.03356433 0.03540805 0.00017283211 -0.054251507 0.0031035186 0.036967095 0.061968718 0.048653595
0.0036041606 -0.022359883 -0.0035635866 0.01480377 0.02122914 0.008358286 0.010675165 -0.003993379
5.609845e-05 0.0039054884 0.032257885 -0.0077220188 0.007197081 0.01642023 0.005550628 0.0048305495
0.006766764 -0.0084194355 0.012050566 0.029216599 0.00986758 -0.055035986 -0.040442802 -0.013302242
0.019921595 0.030424718 -0.034238815 -0.03687379 -0.025376812 -0.015657032 -0.01819292 -0.021870088
00000000: e10b a23b 0dfa c2bb 681e 603d 357b 803d
00000010: d21f 8c3c d3c0 47bd 69d5 04bd df09 5a3b
00000020: 4b0c 103d d7f7 3ebc 740e fdbc 9365 333b
00000030: 8355 f03c 0bcc 353d b5d5 fd3a d2b6 4b3c
00000040: b901 df3c d742 5a3a 8061 9d3c 4838 f1bb
00000050: ef6f d33c 5aa3 363c d19f a13c fe7e 003d
00000060: 7a20 243c bb8f 6ebb dcc3 a13c c3b5 953c
00000070: 82b6 4fb9 ab9a c6bc ad05 99bc 1874 753c
00000080: 96e2 f13b 4e89 a93b 6415 a6bc 29de 993c
00000090: c4e1 c6bc a72c 6e3c ad39 0abc b2b8 953b
000000a0: 9f5a ac3c 52b7 aabc 5c3a 4b3b 6013 babc
000000b0: 19fa f5bc d404 0dbc 090b b8ba 160d e23b
000000c0: 7a9f 813b c86b 8b3c a2c4 12bd ff38 25bd
000000d0: 6038 e33c 1f6d cc3b 2abd ee39 4bbe 68bd
000000e0: fde5 15bd ebeb bebc 2d4a a7bc 6606 e8bc
000000f0: df4f 2b3c c78e 76bc aa35 213c df1a 85bb
00000100: a4e0 2b3d 42c2 0bbc c5f2 d4bb b0dc a03c
00000110: cb99 4b3c 3884 113d d5f0 113c cde2 8e39
00000120: f4dc a73c 8c86 683d 33de 283d 49fd 89bc
00000130: 25a1 453b 2dbf b0bc 83f2 0c3d 2e3d 39bc
00000140: ca48 b5bc b05c d5bb 95f1 76bc b0ff f93c
00000150: 56f7 4abb 8201 c53c 1a50 a33c f2a4 c93c
00000160: cf28 683d 466b f33c 91fc 97bc 6eda 023c
00000170: 878e 24bb 125b 2f3d a238 c5bb a85f 91bd
00000180: 741d 1bbd d1d1 30bd a4b2 52bc 0206 b8bd
00000190: 14c8 c0bc ab60 e03c 1fa5 463b 9e09 393c
000001a0: 3326 c9b9 d0ff 7c3c ca2e c63c 6b2a ff3b
000001b0: 8ab0 dd3b 8445 79bc cfba 313c 18ba ccbc
000001c0: 49f2 7a3c 831e f43b ca67 4abc bdd1 c2bb
000001d0: 8871 943b 7bcc 563c 4156 96bc 7a7a 14bd
000001e0: c738 853c 68c4 89bb 89bb 793c d556 103d
000001f0: 4b4c 6cbc 76e8 b0bc bfc7 2abc a771 393d
00000200: ac25 43bc a67e 793c c654 36bc 60fe 0dbb
00000210: d045 2a3c 901c 0f3c 1dff b6bb cab6 ab3c
00000220: 54fd c03c 1d75 513c c50d 073c 185c 7dbc
00000230: ad71 a33c c10d 67bc aa76 c43c 074f ba3c
00000240: a3fd 03bc 5d76 12bc 7270 e5bb 9475 96bc
00000250: 8206 9d3b 3c7a f43a eb00 ba3c 3036 053d
00000260: 086f fe3c d315 9b3c 31bc ec3c dcb0 873b
00000270: 1a59 f93c 4e99 543c 4ed9 413c ade6 b23b
00000280: d989 8bbc 4fab 303c 62bb c23c ea64 f9bb
00000290: 2677 26bc 09c2 a4bb 49be 0fbd 734f 373a
000002a0: 9aea c9bc 3cf4 1bbd cfcf 8abc bddf dcbc
000002b0: 93e6 f2bc d35f 1abd 8a36 a0bc ad2a a9bc
000002c0: 870e 2d3c 2914 ee3a 838c 76bd ea7b ccbc
000002d0: 4b4b 243d 09f5 803c 9b7a 4a3c ead8 a63c
000002e0: 8011 143c 55d0 2c3c d966 a63c 3c42 253d
000002f0: 934c 0b3d 7c79 9e3b 7212 ebba f3f5 733c
00000300: 777c cbba a6eb 0a3d 7ce9 ac3c 120f 0cbd
00000310: 5c6d babc 8fb9 b83b c381 febb f998 a9bc
00000320: fc15 7bbd 4e18 83bc 5f98 b6bc 4c29 8ebc
00000330: 70d2 08be 9d0c 143d c3e3 af3b 50ea 4d3d
00000340: 0cff 293d ad41 c0bc b03a 773d 68f8 d03c
00000350: a08f 853c d276 6d3d 1a31 933c caf2 e1b9
00000360: c07a 093d 0808 113d 443a 3539 d436 5ebd
00000370: 6764 4b3b cf6a 173d e9d2 7d3d fe48 473d
00000380: c833 6c3b 132c b7bc 108b 69bb 838b 723c
00000390: bce8 ad3c 31f1 083c e3e6 2e3c e4da 82bb
000003a0: 414b 6b38 39f3 7f3b d820 043d fd08 fdbb
000003b0: 7ed5 eb3b b883 863c 0be2 b53b 9649 9e3b
000003c0: bbbb dd3b acf1 09bc bd6f 453c a657 ef3c
000003d0: a1ab 213c 6a6d 61bd 5aa7 25bd a6f1 59bc
000003e0: 9d32 a33c 423d f93c 003e 0cbd f908 17bd
000003f0: 08e3 cfbc 2d43 80bc 5209 95bc e628 b3bc

net.2.body.0.bias f4 [3]
-0.011048299 0.018731892 0.011945471
00000000: ed03 35bc a073 993c f0b6 433c

net.2.body.0.weight f4 [3, 32, 5, 5]
-0.043020517 0.0039097527 0.029490978 -0.041552294 -0.046187572 -0.0022292512 0.0016339166 -0.010651593
-0.032554496 0.005959655 -0.030337207 0.036677085 0.005070046 -0.01841406 -0.0028897838 0.005940375
0.05292737 0.08209563 -0.009306281 0.007926513 -0.055723123 -0.007471238 -0.0008350604 -0.0910006
-0.10773885 -0.029015504 0.014849926 -0.03274741 0.00964241 0.055709813 -0.019815998 0.0013360109
0.027949497 0.010201449 -0.014663 -0.036675163 -0.03909193 0.008251399 0.011693699 -0.046018355
-0.022139918 -0.0006366331 -0.037500553 -0.0017280952 -0.07048169 0.0045173797 -0.028119521 -0.026751887
-0.013540426 -0.03900153 -0.021139273 -0.01191823 -0.06653632 -0.047826998 -0.0058607906 0.0028896595
-0.08953702 -0.0333996 -0.039153177 8.968185e-05 -0.02621604 -0.04551984 -0.0067204726 0.08057014
-0.0031960558 -0.02475311 -0.0037223564 0.028849993 0.05752377 0.043836426 0.0113417385 0.013517738
0.0038230564 0.031977892 0.08974095 -0.032755744 0.011893374 0.028062364 -0.024837194 0.040697422
-0.018349856 0.0048603215 0.018292049 0.006628903 0.030326849 -0.0020706172 0.02530227 -0.028547017
0.0045410777 0.0061783968 -0.032362968 -0.02941668 0.029822929 0.008287008 -0.004103039 -0.00025700015
-0.00415276 -0.00407165 -0.003447923 -0.017020268 0.031844214 0.004436645 0.04271324 -0.017772896
0.023611156 -0.023919232 0.031209584 0.02648778 -0.024877435 -0.02912408 -0.02578447 0.036206126
0.03670857 0.00811733 -0.013767744 -0.029424084 -0.014000465 -0.0083698975 0.016075948 -0.028949456
-0.0051550963 0.009102336 0.03414778 -0.021385979 0.019604603 -0.0012014037 0.032639027 0.017709937
0.027687056 -0.030880848 -0.018301034 0.0065034893 0.018140052 0.013904452 -0.021728903 0.026297761
0.034524865 0.003676701 0.021805674 0.009559658 -0.02012134 0.017649414 -0.03169871 0.017218467
0.027137652 0.012724402 -0.03516784 -0.021984164 0.021654103 -0.03167877 -0.008942122 -0.014022805
0.022699583 0.03449297 0.0046896758 0.019916503 0.015758252 0.017108744 -0.00023837933 0.031349845
-0.010061418 0.016028417 0.010669837 0.031302072 0.029207172 -0.0102145225 -0.029132858 -0.032691527
-0.011838321 0.013179665 -0.03285667 0.02750412 -0.009065859 0.02281708 -0.013136999 0.031987865
0.0026442108 0.030920705 -0.00824298 -0.020301066 -0.014227921 0.00039257476 0.0024689757 -0.025881961
-0.031576727 0.028146928 -0.03127377 -0.026547581 0.027626188 0.030504728 -0.016090859 0.013594968
0.010921128 0.025024733 -0.011676838 -0.024589099 0.0043152026 -0.019160064 0.0013396855 0.01971775
-0.032259326 0.030577144 0.011506382 -0.044226177 -0.05649339 0.004801091 0.03485746 0.05721235
-0.024945809 -0.072669744 0.02117292 0.06916748 0.09228058 -0.0392989 -0.081296384 -0.019183116
0.032049652 0.022578025 -0.032677975 -0.06368884 0.014809972 -0.015026086 0.036003735 0.02844058
-0.007545455 0.019419128 0.028637154 0.03529819 -0.0067497543 0.0015449204 0.003955215 0.03760803
0.02545052 2.0281714e-05 -0.03250787 0.049068447 -0.0014636556 -0.00078783993 -0.020918075 -0.03355145
0.047610473 0.028989993 -0.0052486034 -0.040152676 -0.026152313 -0.003054944 0.025491212 -0.028396089
-0.037777573 -0.042208463 -0.027022662 -0.026225122 -0.047998738 -0.04112478 -0.008974273 -0.019013071
00000000: 4836 30bd 621d 803b 1097 f13c bd32 2abd
00000010: 2e2f 3dbd a118 12bb 2529 d63a 0584 2ebc
00000020: dd57 05bd 3649 c33b bc85 f8bc b63a 163d
00000030: a122 a63b 15d9 96bc 8762 3dbb 7aa7 c23b
00000040: 5fca 583d c121 a83d 5f79 18bc 35de 013c
00000050: ee3d 64bd 49d1 f4bb f4e7 5aba 865e babd
00000060: 30a6 dcbd ecb1 edbc 1b4d 733c 2622 06bd
00000070: 33fb 1d3c f92f 643d 2955 a2bc 161d af3a
00000080: 58f6 e43c fa23 273c 143d 70bc b238 16bd
00000090: dc1e 20bd e030 073c ee96 3f3c be7d 3cbd
000000a0: c65e b5bc b9e3 26ba 2e9a 19bd 4181 e2ba
000000b0: b458 90bd 8706 943b e95a e6bc c626 dbbc
000000c0: aad8 5dbc 11c0 1fbd 452c adbc ae44 43bc
000000d0: 3244 88bd 3ee6 43bd e00b c0bb 7160 3d3b
000000e0: 2f5f b7bd 05ce 08bd 155f 20bd 9413 bc38
000000f0: 05c3 d6bc 0373 3abd 6937 dcbb f501 a53d
00000100: eb74 51bb 09c7 cabc c7f2 73bb d256 ec3c
00000110: 0b9e 6b3d d38d 333d b3d2 393c 8179 5d3c
00000120: 3e8c 7a3b 40fb 023d 1aca b73d e32a 06bd
00000130: 6ddc 423c 0be3 e53c 5f77 cbbc 57b2 263d
00000140: 7052 96bc 5543 9f3b 35d9 953c 4537 d93b
00000150: 0370 f83c 31b3 07bb b546 cf3c 6fdb e9bc
00000160: 52cd 943b 2674 ca3b 088f 04bd 40fb f0bc
00000170: 374f f43c 3bc6 073c c972 86bb fabd 86b9
00000180: e013 88bb 7a6b 85bb 8df6 61bb 176e 8bbc
00000190: 146f 023d 4761 913b 14f4 2e3d 7798 91bc
000001a0: 2f6c c13c 44f2 c3bc 3eab ff3c e7fc d83c
000001b0: c3cb cbbc 9f95 eebc f439 d3bc e04c 143d
000001c0: ba5b 163d 8dfe 043c 1b92 61bc c70a f1bc
000001d0: 3562 65bc e521 09bc b5b1 833c 6927 edbc
000001e0: 15ec a8bb f721 153c 8bde 0b3d a631 afbc
000001f0: d599 a03c 6b78 9dba 80b0 053d 6e14 913c
00000200: f7cf e23c d5f9 fcbc 0dec 95bc 391b d53b
00000210: 729a 943c 80cf 633c d000 b2bc 676e d73c
00000220: f269 0d3d cff4 703b d0a1 b23c 1da0 1c3c
00000230: 82d5 a4bc 8195 903c 82d6 01bd be0d 8d3c
00000240: c84f de3c 037a 503c 270c 10bd 2218 b4bc
00000250: f263 b13c 99c1 01bd fa81 12bc e8bf 65bc
00000260: 7af4 b93c 8048 0d3d daab 993b ef27 a33c
00000270: 7317 813c a327 8c3c 77f5 79b9 b268 003d
00000280: a5d8 24bc 074e 833c 8ad0 2e3c 9a36 003d
00000290: e143 ef3c d05a 27bc 08a8 eebc 8de7 05bd
000002a0: 84f5 41bc 86ef 573c b794 06bd 5250 e13c
000002b0: f888 14bc e3ea ba3c 913c 57bc b505 033d
000002c0: 7f4a 2d3b 6b4d fd3c 900d 07bc 6c4e a6bc
000002d0: 3a1c 69bc 7ed2 cd39 8ace 213b 6806 d4bc
000002e0: 9956 01bd 6394 e63c ed18 00bd 507a d9bc
000002f0: 5150 e23c 0de5 f93c fad0 83bc 6ebd 5e3c
00000300: 88ee 323c ab00 cd3c 3550 3fbc 146f c9bc
00000310: 8b66 8d3b 91f5 9cbc 6398 af3a 1e87 a13c
00000320: 5b22 04bd eb7c fa3c 4485 3c3c 8226 35bd
00000330: 9d65 67bd 7852 9d3b b2c6 0e3d 7f57 6a3d
00000340: 275b ccbc e0d3 94bd d572 ad3c aea7 8d3d
00000350: 9afd bc3d e2f7 20bd b87e a6bd e925 9dbc
00000360: 7f46 033d 8df5 b83c 57d9 05bd 4b6f 82bd
00000370: 86a5 723c f92f 76bc a778 133d 38fc e83c
00000380: dd3f f7bb dd14 9f3c 7798 ea3c d694 103d
00000390: 0b2d ddbb ed7e ca3a c09a 813b e10a 1a3d
000003a0: 9c7d d03c a622 aa37 f926 05bd fffb 483d
000003b0: 22d8 bfba 0b87 4eba 625c abbc 3f6d 09bd
000003c0: 3303 433d 6c7c ed3c 7afc abbb 2277 24bd
000003d0: 603d d6bc 7535 48bb f2d2 d03c ea9e e8bc
000003e0: a8bc 1abd c8e2 2cbd a15e ddbc 11d6 d6bc
000003f0: 539a 44bd 7572 28bd d408 13bc 4dc1 9bbc
